esp32server/data/mlp_tf.tflite (tflite, 6088 bytes, 3 tensors)

arith.constant f4 [1, 100]
0	0x3f258e4d	0.6467026
1	0x3f47ba5f	0.78018755
2	0x3f050d9a	0.5197388
3	0xbeae13d4	-0.33999503
4	0x3f055833	0.52087706
5	0x3f0c416d	0.5478733
6	0xbec9bf9e	-0.39404005
7	0x3ea07f2c	0.31347024
8	0x3e8acf67	0.2711136
9	0xbecda57d	-0.4016532
10	0xbe560e91	-0.20903994
11	0x3f432de6	0.7624191
12	0xbf1311bd	-0.5744894
13	0x3e830141	0.25586894
14	0xbf00a60a	-0.50253356
15	0xbf0864da	-0.5327889
16	0x3f65d041	0.89770895
17	0xbedf4afc	-0.43611896
18	0x3ef5bed4	0.47997153
19	0xbe7abdc7	-0.24486457
20	0x3e6e4078	0.2326678
21	0x3f772a4c	0.96548915
22	0x3f324eaa	0.6965128
23	0x3e994900	0.29938507
24	0xbf163848	-0.5867963
25	0xbf1642c1	-0.5869561
26	0x3f804b89	1.0023052
27	0xbecc1f8a	-0.39867812
28	0xbe5522e8	-0.20814097
29	0xbe8f5652	-0.27995545
30	0x3ea4c8d3	0.32184467
31	0x3e4d4e90	0.200495
32	0x3e7ea088	0.24865925
33	0x3f9dde92	1.2333548
34	0x3eb3311e	0.3499841
35	0xbeaf5555	-0.3424479
36	0x3f9548d9	1.1662856
37	0xbe9eb77e	-0.30999368
38	0xbf09b627	-0.5379357
39	0xbe86a7cb	-0.2629989
40	0x3ec18c42	0.3780232
41	0x3ec72d65	0.3890182
42	0x3f5000ce	0.8125123
43	0xbee1231b	-0.43972096
44	0x3eb17676	0.3466069
45	0xbf2c9168	-0.6740937
46	0x3f205194	0.6262448
47	0x3f32550e	0.69661033
48	0x3ec664de	0.3874883
49	0xbec1f310	-0.37880754
50	0x3eed95d9	0.46403387
51	0xbeedf8f8	-0.4647901
52	0xbec633fa	-0.3871153
53	0x3f138791	0.5762873
54	0xbe4ac2ab	-0.19800822
55	0x3f0e738c	0.5564506
56	0x3f497aa3	0.78702754
57	0xbeb355d7	-0.35026428
58	0x3f8bdfc3	1.0927662
59	0xbf3b308a	-0.7312094
60	0xbefff04c	-0.4998802
61	0xbe58ede2	-0.21184495
62	0xbea018f9	-0.31269053
63	0xbf24ee2a	-0.6442591
64	0xbe99dca3	-0.30051145
65	0xbeae1315	-0.33998933
66	0xbef7b80c	-0.48382604
67	0xbebf628c	-0.37379873
68	0xbef014a7	-0.46890756
69	0x3f0f4cae	0.5597638
70	0xbf200382	-0.6250535
71	0x3efe50c5	0.49670997
72	0xbe94ad62	-0.2903853
73	0xbee0d449	-0.4391196
74	0xbf0c7484	-0.5486529
75	0xbefafc93	-0.49020824
76	0xbedc1950	-0.42988062
77	0xbea1f168	-0.3162949
78	0xbeaa4106	-0.33252734
79	0x3eaa9911	0.33319905
80	0xbee87ff0	-0.4541011
81	0x3f158ac0	0.5841484
82	0x3e927599	0.28605345
83	0x3f08ae3b	0.53390855
84	0x3f81ea0a	1.0149548
85	0xbed4622b	-0.41481146
86	0x3ee9f312	0.4569326
87	0xbf14b2e3	-0.5808546
88	0x3f3c5808	0.73571825
89	0x3e7b9d77	0.24571787
90	0xbf0326ed	-0.5123127
91	0x3ecddada	0.40206033
92	0xbf06c56f	-0.5264501
93	0xbe9d8a6d	-0.30769673
94	0x3e9a84f0	0.30179548
95	0x3e655fe8	0.22399867
96	0x3e4bb247	0.19892226
97	0xbed133b4	-0.4085976
98	0x3e9dc331	0.30812982
99	0x3d8e50b4	0.06948987

sequential_1_1/dense_4_1/BiasAdd/ReadVariableOp f4 [100]
0	0xbeda5af9	-0.42647532
1	0xbebc6798	-0.36797786
2	0xbeb43008	-0.35192895
3	0x3ee3988a	0.44452316
4	0xbce3f310	-0.027825862
5	0x3dd1ebd7	0.10250061
6	0x3f17899d	0.59194356
7	0xbee29a0f	-0.44258162
8	0xbdeffcfd	-0.117181756
9	0x3e8eb330	0.27871084
10	0x3f05933a	0.52177775
11	0xbeb08f09	-0.34484127
12	0x3f0b4500	0.5440216
13	0xbf091fb2	-0.5356399
14	0x3f0a52d2	0.54032624
15	0x3ef11181	0.47083667
16	0xbde9f81b	-0.114242755
17	0x3e81e0d3	0.2536684
18	0xbe9dbb5d	-0.3080701
19	0x3ed1ca9c	0.4097489
20	0xbef46a38	-0.47737288
21	0xbf182738	-0.59434843
22	0xbebee589	-0.37284496
23	0xbefa46e3	-0.48882207
24	0x3f36927c	0.7131727
25	0x3e93d2a4	0.28871644
26	0xbee6dcff	-0.45090482
27	0x3f23fc75	0.64057094
28	0x3f1f4312	0.62211716
29	0x3eda2691	0.4260755
30	0xbf01efee	-0.5075673
31	0xbea0bcd9	-0.3139408
32	0xbd99a16b	-0.07501491
33	0xbefe0ec8	-0.49620652
34	0xbed96d33	-0.42466125
35	0x3ee938a6	0.45551032
36	0xbf30d71a	-0.6907822
37	0x3ebd0b81	0.3692284
38	0x3f05fea1	0.5234166
39	0x3f076262	0.52884495
40	0xbeaad664	-0.33366692
41	0xbef88b4d	-0.48543778
42	0xbee0bb56	-0.43892926
43	0x3f0bdb7f	0.546318
44	0xbe24aa9b	-0.16080706
45	0x3e6c6bf6	0.23088059
46	0xbe53479b	-0.20632784
47	0xbeceb987	-0.4037592
48	0xbeefe421	-0.46853736
49	0x3efed486	0.49771518
50	0xbe51e37f	-0.20496939
51	0x3f03e2c0	0.5151787
52	0x3ea08cfb	0.3135756
53	0xbe52189e	-0.20517203
54	0x3f0ac9a6	0.5421394
55	0xbef036df	-0.46916863
56	0xbecd042f	-0.40042254
57	0x3f317200	0.69314575
58	0xbe94d78c	-0.290707
59	0x3eb8a9fb	0.36067185
60	0x3eb64abc	0.35603893
61	0x3eede1f4	0.4646145
62	0x3aa4ea0d	0.001258196
63	0x3f2a05ea	0.66415274
64	0x3f020a5b	0.5079705
65	0x3f09eba5	0.5387519
66	0x3ee0403d	0.4379901
67	0x3f09a7fa	0.53771937
68	0x3f18c6a4	0.596781
69	0xbea74c6f	-0.32675502
70	0x3ec70fc4	0.38879216
71	0xbea4887c	-0.3213538
72	0x3f0da082	0.5532304
73	0x3f100050	0.56250477
74	0x3f0a04b4	0.53913426
75	0x3f0c93db	0.5491311
76	0x3f572640	0.8404274
77	0x3f15314e	0.5827836
78	0x3f108d03	0.56465167
79	0xbdfcfd28	-0.12352973
80	0x3f3327ce	0.6998261
81	0xbf1856c0	-0.5950737
82	0xbefc162e	-0.49235672
83	0xbe8fde95	-0.28099504
84	0xbf0e1c9a	-0.5551239
85	0x3f335f8a	0.70067656
86	0xbef9023d	-0.4863452
87	0x3f444102	0.76661694
88	0xbeca5304	-0.3951646
89	0xbe05d761	-0.13070442
90	0x3f37ab1a	0.71745455
91	0xbe3bfd1b	-0.18358271
92	0x3eaac257	0.33351395
93	0x3f1a161d	0.6018999
94	0xbec33e5d	-0.38133517
95	0xbec3b1fc	-0.3822173
96	0xbdedc37f	-0.116095535
97	0x3f06e2d3	0.52689856
98	0xbeb8c64d	-0.3608879
99	0xbd85b81a	-0.06529255

sequential_1_1/dense_4_1/MatMul f4 [100, 9]
0	0x3d2925a3	0.04129566
1	0xbd396d79	-0.045270417
2	0x3e09f83e	0.13473603
3	0x3ecff487	0.40616247
4	0xbdd60d75	-0.104517855
5	0xbe91c454	-0.284701
6	0x3ead3bbc	0.33834636
7	0xbe7daab5	-0.24772151
8	0x3eb1a396	0.3469512
9	0xbcd43e25	-0.02590854
10	0x3e8b45dd	0.2720174
11	0x3d63719c	0.05552827
12	0x3e09d3a4	0.1345964
13	0xbd7ad132	-0.06123466
14	0xbebcf308	-0.36904168
15	0x3f0b4d6b	0.54415005
16	0x3e5c57bd	0.21517844
17	0xbe0f4335	-0.13990481
18	0x3e9846f8	0.29741645
19	0xbe7c9a58	-0.24668252
20	0xbd6a81a2	-0.057252534
21	0xbec386f4	-0.381889
22	0xbef8b3a3	-0.48574552
23	0xbecf836b	-0.4052995
24	0x3d78c9fe	0.06073951
25	0x3e028316	0.12745318
26	0xbd7d8c91	-0.061901633
27	0xbd760518	-0.06006345
28	0xbdb8268f	-0.089917295
29	0xbdaeb053	-0.08529725
30	0xbe98f661	-0.29875472
31	0xbe334f08	-0.17510617
32	0x3deed8b2	0.11662425
33	0x3c4297cd	0.011877012
34	0x3dd0095b	0.101580344
35	0x3e9611ae	0.29310364
36	0x3dc18bd9	0.09450502
37	0x3e8b1231	0.27162316
38	0x3ebac094	0.3647505
39	0xbe9b89d7	-0.303786
40	0xbe6c4bc8	-0.23075783
41	0x3e482e8a	0.19549003
42	0xbed65eaf	-0.41869113
43	0x3d87634c	0.06610736
44	0x3ef8722c	0.48524606
45	0x3e361908	0.17782986
46	0xbe441f79	-0.19152631
47	0x3dd91628	0.10599929
48	0x3e1c07f0	0.15237403
49	0xbf0c8193	-0.54885215
50	0xbf4081f5	-0.751983
51	0xbe34ecd6	-0.1766847
52	0x3e9bdf77	0.30443928
53	0x3eaefb86	0.34176272
54	0x3ecc8127	0.39942285
55	0xbe509e63	-0.2037292
56	0xbd84da23	-0.06486919
57	0xbe0266ae	-0.12734482
58	0xbe6bdf46	-0.23034391
59	0x3e0bdef8	0.13659275
60	0xbde03218	-0.109470546
61	0x3d804f0f	0.06265079
62	0xbde83774	-0.11338702
63	0x3d1c1375	0.038104493
64	0xbeaa0245	-0.33204857
65	0x3d0df66f	0.034658846
66	0x3d7cddd5	0.061734993
67	0xbe094ba8	-0.13407767
68	0x3eb50caa	0.35361224
69	0xbe205395	-0.15656884
70	0x3e4f3b6a	0.20237508
71	0x3da543d9	0.080695815
72	0xbd680c7a	-0.056652524
73	0x3ebd2e67	0.36949465
74	0xbdd0c833	-0.10194435
75	0x3e9b9c56	0.30392712
76	0x3df731de	0.12070058
77	0xbedaa765	-0.42705837
78	0xbc58798a	-0.013212571
79	0x3d09b8ab	0.03362338
80	0x3e9055dd	0.28190508
81	0x3e53d9f2	0.20688608
82	0x3e8f1303	0.27944192
83	0xbee8efce	-0.45495456
84	0x3e25e9e6	0.16202506
85	0xbb07b665	-0.002070808
86	0x3e9b169b	0.30290684
87	0xbdebe555	-0.11518351
88	0x3db778b6	0.08958571
89	0x3d01fe69	0.031736765
90	0x3d9611a6	0.07327585
91	0xbcc65541	-0.024210574
92	0xbcc6d93e	-0.024273511
93	0x3e92a167	0.28638765
94	0xbe0467d5	-0.12930234
95	0x3df2ee20	0.11861825
96	0xbdd924b1	-0.106027015
97	0xbdbf50f2	-0.09341611
98	0x3c5451ae	0.012958927
99	0x3cc43cbd	0.023954744
100	0x3f044916	0.5167402
101	0x3d26e96e	0.04074996
102	0x3e78c466	0.2429367
103	0x3eb03791	0.34417394
104	0xbea5ff5a	-0.3242138
105	0x3f178179	0.59181935
106	0x3e1287e3	0.14309649
107	0x3d4fab95	0.050700743
108	0x3db50870	0.088395
109	0xbd188781	-0.0372386
110	0x3e0b7e5c	0.13622421
111	0x3d931266	0.071812436
112	0x3f20dd32	0.6283752
113	0xbd70fe8f	-0.058836516
114	0xbd0d7727	-0.03453746
115	0x3e4d3269	0.20038761
116	0x3e6c7097	0.23089825
117	0x3ddacf0f	0.106840245
118	0xbed6e35c	-0.41970336
119	0x3e8a0db8	0.26963592
120	0xbe2e3624	-0.1701284
121	0xbe352fd3	-0.17694025
122	0x3e9a4547	0.3013098
123	0x3db493dc	0.088172644
124	0x3e41804f	0.18896602
125	0xbdef105d	-0.11673043
126	0x3e0ff941	0.14059927
127	0xbe2544cd	-0.16139527
128	0xbe7d3795	-0.24728234
129	0xbe3edc46	-0.18638715
130	0x3d6c03a5	0.057620663
131	0x3d5cbe8a	0.05389265
132	0xbdf54a23	-0.11977031
133	0x3e9e4cf4	0.30918086
134	0xbe045e52	-0.12926605
135	0xbd098d41	-0.033581976
136	0x3dbf7e34	0.09350243
137	0x3bca3f21	0.0061720763
138	0x3db5ec80	0.088829994
139	0x3eaa060f	0.33207747
140	0x3e82a4f5	0.25516477
141	0xbe2d6bec	-0.169357
142	0x3e5ab3fe	0.21357724
143	0x3e420cf3	0.18950252
144	0x3d4d83e8	0.050174624
145	0xbf65e01c	-0.8979509
146	0xbe49dc63	-0.19712977
147	0x3e428cf2	0.18999079
148	0xbf18b7fe	-0.5965575
149	0xbf2e6197	-0.6811766
150	0xbe27c0f0	-0.16382194
151	0x3dd65bc7	0.10466724
152	0x3d7550a8	0.059891373
153	0x3d8838da	0.066514686
154	0xbec20ff3	-0.37902793
155	0x3e46ad51	0.19402052
156	0x3c174365	0.009232377
157	0x3f15b138	0.5847354
158	0xbe182051	-0.14856078
159	0x3d742bce	0.059612088
160	0x3dd4a395	0.10382763
161	0x3d601c69	0.054714594
162	0x3dac1178	0.084017694
163	0x3ea5e244	0.3239919
164	0x3eb0848f	0.34476134
165	0xbe8d9045	-0.2764913
166	0xbe5671a9	-0.20941795
167	0x3d66e3ac	0.05636947
168	0x3e4eb91d	0.20187803
169	0x3e6ed9a6	0.23325214
170	0x3e6e2c57	0.23259102
171	0xbd8300ca	-0.06396635
172	0x3df898bd	0.121385075
173	0xbd4b5448	-0.049640924
174	0x3dbab957	0.09117382
175	0xbd390465	-0.045170207
176	0xbd222949	-0.039590154
177	0xbc0bba65	-0.008528327
178	0x3e52524e	0.20539209
179	0x3e3ad09e	0.18243644
180	0x3db919e2	0.0903814
181	0xbecdf9ec	-0.40229738
182	0x3dba7b7a	0.091055825
183	0xbdfd920a	-0.1238137
184	0xbd2ecdd2	-0.042676754
185	0x3e0b3cfa	0.1359748
186	0x3db39082	0.08767797
187	0x3e57cd1d	0.21074338
188	0x3dd3a6fc	0.10334584
189	0x3dd28bf6	0.10280602
190	0x3edd7368	0.4325211
191	0x3ea06da6	0.31333655
192	0x3dd7e430	0.1054157
193	0x3db8e60d	0.09028254
194	0x3e8b2b49	0.2718146
195	0x3d9f5e28	0.07781631
196	0x3de27ac0	0.11058569
197	0x3e5e846d	0.21730204
198	0xbd8da70a	-0.06916626
199	0x3e69c667	0.2282959
200	0x3ba83738	0.0051335357
201	0x3eaa741b	0.33291706
202	0x3e640c4d	0.22270317
203	0xbea8e96f	-0.32990596
204	0x3ed5d6c7	0.41765425
205	0x3e5d2a07	0.21598063
206	0xbd49f822	-0.049308904
207	0x3c9dabf4	0.019247033
208	0xbe082fbe	-0.13299462
209	0x3ec5b025	0.3861095
210	0xbe21e291	-0.15809084
211	0xbe7a04c2	-0.24415877
212	0x3e36d170	0.17853332
213	0x3d204c3d	0.039135206
214	0x3e60ea4b	0.21964376
215	0x3db89242	0.090122715
216	0xbf064da0	-0.52462196
217	0xbd70fdff	-0.05883598
218	0xbe4b4f7f	-0.19854544
219	0xbde6a9d5	-0.11262862
220	0xbd25f127	-0.040513184
221	0xbcdebead	-0.02719053
222	0x3e5d67fe	0.21621701
223	0x3d475454	0.048664406
224	0xbda1a610	-0.07893002
225	0xbb3959d2	-0.0028282297
226	0x3ef89689	0.4855235
227	0xbeccd69b	-0.4000748
228	0x3dd7f348	0.10544449
229	0xbed96577	-0.42460224
230	0x3e9657ac	0.29363763
231	0xbe061ed0	-0.13097692
232	0xbe690771	-0.22756745
233	0xbe54cebf	-0.20781992
234	0xbdb2db49	-0.087332316
235	0x3e8bbb3b	0.27291283
236	0x3d970fd6	0.07376067
237	0xbd8c1ef7	-0.068418436
238	0x3f57ca3c	0.8429296
239	0x3f321d13	0.69575614
240	0x3e4adaa7	0.19809972
241	0x3d74b333	0.05974121
242	0x3d6b6a9a	0.05747471
243	0xbe6d713e	-0.2318773
244	0x3e92553d	0.28580657
245	0xbe301441	-0.17195226
246	0x3de1b239	0.110203214
247	0xbe183ddd	-0.14867349
248	0x3dadbcf4	0.084833056
249	0xbcdbe8a9	-0.02684434
250	0xbd5803df	-0.052738067
251	0xbe3f6103	-0.18689351
252	0xbeb4ce27	-0.35313532
253	0xbcc7568b	-0.02433326
254	0x3cfe0c02	0.031011585
255	0xbd62c821	-0.05536664
